zero_day_ai_project/results/model_logs/gnn_model_20250518_190449.pt (torch, 217965 bytes, 6 tensors)

conv1.bias f4 [64]
0	0x3abd80e2	0.0014457966
1	0x3970c471	0.00022961364
2	0x3b32016b	0.002716149
3	0x3a64a23e	0.0008721686
4	0xbab5bcf4	-0.0013865517
5	0xb9b9ecd4	-0.000354624
6	0x00000000	0.0
7	0x00000000	0.0
8	0xba93f991	-0.0011289587
9	0x3b171159	0.0023051111
10	0x3b3832ee	0.0028106528
11	0xb9553d52	-0.00020336107
12	0x3b3a2a34	0.0028406503
13	0x00000000	0.0
14	0x3b366cf1	0.002783593
15	0xbb03aa90	-0.0020090677
16	0xbb250e31	-0.002518546
17	0x3b1fc6a1	0.0024379867
18	0xb9a2786e	-0.00030988775
19	0x3b2da802	0.0026497846
20	0xbacb4547	-0.0015508317
21	0x3aa65c50	0.0012692306
22	0x00000000	0.0
23	0x00000000	0.0
24	0xb97a625b	-0.00023878498
25	0xbb205da0	-0.0024469867
26	0xbabf0352	-0.0014573133
27	0x00000000	0.0
28	0xba4a5ed5	-0.00077198196
29	0x3b2af9b2	0.0026088771
30	0x3a7b732f	0.0009592054
31	0x00000000	0.0
32	0x3b2271ba	0.0024787025
33	0x3afb17b7	0.0019156848
34	0x00000000	0.0
35	0xb8099908	-3.2805867e-05
36	0x00000000	0.0
37	0x3b2bceed	0.0026215867
38	0xbb21c4b6	-0.00246839
39	0x3b37bc24	0.0028035725
40	0xbb098217	-0.002098208
41	0x00000000	0.0
42	0x3b1e734f	0.0024177616
43	0xbb218dc8	-0.0024651159
44	0xbb349dd1	-0.0027559886
45	0xbae6bfc4	-0.0017604758
46	0xbaa7da9e	-0.0012806242
47	0x00000000	0.0
48	0xbaa290bd	-0.0012402755
49	0x3b29d17a	0.0025912211
50	0xbb26b623	-0.0025438152
51	0x3a5534f5	0.00081331964
52	0x00000000	0.0
53	0x00000000	0.0
54	0x00000000	0.0
55	0x3b0881f0	0.0020829402
56	0x00000000	0.0
57	0x3b0ec168	0.002178276
58	0xbb378118	-0.002800053
59	0xbad4de76	-0.0016240615
60	0x3b3b017b	0.0028534818
61	0xbaa7a2e4	-0.0012789634
62	0x397fe114	0.00024402543
63	0x39d8ffee	0.00041389413

conv1.lin.weight f4 [64, 768]
0	0x3cab35ea	0.020899732
1	0x3d9b0575	0.075694
2	0x3d23fb7c	0.040034756
3	0xbd286e0b	-0.04112057
4	0xbd30de82	-0.04318095
5	0xbd9fbe94	-0.07800022
6	0xbd084f0d	-0.033278514
7	0x3d59a64a	0.0531371
8	0x3d96bd36	0.07360308
9	0xbd081ca6	-0.033230446
10	0x3d8128e3	0.06306627
11	0x3d2964a4	0.041355744
12	0xbd4a7c13	-0.049434733
13	0x3b2efd79	0.0026701374
14	0x3da004bc	0.07813403
15	0xbd681f44	-0.056670442
16	0xbd28eda9	-0.041242275
17	0xbc8697e8	-0.016429856
18	0x3cacebcc	0.02110853
19	0xbd347716	-0.04405888
20	0x3cb919ff	0.022595404
21	0xbda87c9e	-0.08226894
22	0xbd5f6d3e	-0.05454754
23	0xbc450a86	-0.012026435
24	0x3bbd6af1	0.0057805707
25	0xbc133c58	-0.008986555
26	0xbd9fd2aa	-0.07803853
27	0x3d8d8383	0.069098495
28	0x3c8e8730	0.017398447
29	0xbd77cd9b	-0.060498815
30	0xbd74cf81	-0.059768204
31	0x3d622532	0.055211253
32	0x3d9eb26b	0.07748874
33	0x3cc94dd7	0.02457325
34	0x3d8aba57	0.06773823
35	0x3d8913a4	0.06693199
36	0xbda93739	-0.08262486
37	0x3d89462b	0.067028366
38	0xbd4a7caf	-0.049435314
39	0x3dac6b1b	0.08418866
40	0x3ce1edd5	0.027579227
41	0x3d84af3a	0.06478734
42	0xbd577669	-0.05260316
43	0x3d91f543	0.07126858
44	0xbb32b5a2	-0.0027268906
45	0x3d81e68f	0.06342804
46	0x3cc895a2	0.024485413
47	0x3dae17a6	0.08500604
48	0x3c19c0d2	0.009384351
49	0x3d93621e	0.07196449
50	0xbdadce38	-0.08486599
51	0x3be9017c	0.0071107727
52	0x3d61a8b6	0.055092536
53	0xbd73af5b	-0.059493404
54	0x3d00afc6	0.03141763
55	0x3bf06ed3	0.00733743
56	0xbd22d080	-0.039749622
57	0xbd045cbf	-0.032315012
58	0x3da4017c	0.080080956
59	0xbbc2d85d	-0.0059462027
60	0xbd2d6509	-0.042332683
61	0xbd7cd0e6	-0.06172266
62	0xbc87a5d3	-0.016558563
63	0xbd0fa63d	-0.035070647
64	0x3c1f5037	0.009723715
65	0x3d41669b	0.047216993
66	0xbb164b94	-0.0022933232
67	0xbd52d7ac	-0.051475212
68	0x3be37b13	0.006942162
69	0xbd84a0c6	-0.064759776
70	0xbd47ed19	-0.0488101
71	0x3ccd0d7c	0.025030844
72	0x3d9b17a2	0.07572867
73	0xbcd0bd16	-0.025480788
74	0xbd9bab29	-0.076010056
75	0x3da90933	0.08253708
76	0x3d37bb6b	0.04485647
77	0xbda38105	-0.07983593
78	0x3d95ec78	0.073204935
79	0xbcd38080	-0.02581811
80	0xbda3c0e6	-0.07995777
81	0x3d948b78	0.07253164
82	0xbda18e9a	-0.07888527
83	0x3d5a395c	0.05327736
84	0x3d904411	0.07044233
85	0x3d5ad18b	0.053422492
86	0xbd7b7346	-0.06138923
87	0xbc8a8069	-0.016906934
88	0xbd4adcb1	-0.049526874
89	0x3d7e5c4e	0.062099747
90	0xbd903954	-0.070421845
91	0x3d841a30	0.06450307
92	0x3d8a3678	0.0674867
93	0x3d139f69	0.036040697
94	0x3da2e9ce	0.07954751
95	0x3dad82e0	0.08472228
96	0x3d378c8f	0.04481178
97	0xbd2457df	-0.040122863
98	0xbcb128e2	-0.02162594
99	0x3d504a37	0.050852027
100	0xbd3963a5	-0.045261044
101	0x3d08ee66	0.03343048
102	0xbc7906e0	-0.015199393
103	0x3cb500c3	0.02209509
104	0x3d9a9671	0.07548226
105	0xbdb26316	-0.087103054
106	0x3b1bb502	0.0023759012
107	0x3c6c2db6	0.014415195
108	0x3d8aab6a	0.06770976
109	0x3ba9a20c	0.005176788
110	0xbd81d769	-0.06339914
111	0x3d9bf530	0.07615125
112	0x381fc578	3.809246e-05
113	0x3cae4417	0.021272702
114	0x3d045238	0.032304972
115	0xbd5ee4eb	-0.054417532
116	0xbbc1f503	-0.0059191003
117	0x3dac121b	0.08401891
118	0xbd1f5bbb	-0.03890584
119	0xbc17de25	-0.009269272
120	0xbd83c98e	-0.06434928
121	0xbc27a94c	-0.010233235
122	0x3c7b17f3	0.015325534
123	0x3d99b08d	0.075043775
124	0xbd4363ab	-0.047702473
125	0x3cda1b7d	0.026624436
126	0xbd32f121	-0.04368699
127	0x3da9f214	0.08298126
128	0xbd6df61a	-0.05809603
129	0x3c736714	0.014856119
130	0x3c9b5baa	0.018964607
131	0x3d325c69	0.04354516
132	0xbd86f167	-0.065890126
133	0x3d197063	0.037460696
134	0x3daa0800	0.08302307
135	0x3d31235c	0.043246612
136	0xbd935273	-0.0719346
137	0x3d22c39b	0.039737325
138	0x3cd92f55	0.026511827
139	0x3d9ab547	0.07554107
140	0x3d07a605	0.033117313
141	0x3cd1f61f	0.025630055
142	0xbc027e5a	-0.007964695
143	0x3d2dd1e5	0.0424365
144	0x3d4200ee	0.047364168
145	0x3c977ba7	0.01849158
146	0x3ca7d116	0.020485442
147	0xbd70864e	-0.058721833
148	0xbd3dcc7a	-0.046337582
149	0x3da4e017	0.08050554
150	0xbd9deec6	-0.07711558
151	0xbcda205a	-0.026626755
152	0xbd5ae933	-0.053445052
153	0xbd8668eb	-0.0656298
154	0xbd935a88	-0.07195002
155	0xbd502848	-0.050819665
156	0xbdafc1d1	-0.085818894
157	0xbd150e38	-0.036390513
158	0x3d62dbbc	0.055385336
159	0x3d9b7ef5	0.075925745
160	0xbaf8bc33	-0.0018976986
161	0x3d1e163c	0.038595423
162	0xbc7ed087	-0.0155526465
163	0x3d2e3f42	0.042540796
164	0x3d2857ed	0.041099478
165	0x3d88fc17	0.06688707
166	0x3c5a8c85	0.0133391665
167	0x3cb4cf6c	0.022071563
168	0xbcfda078	-0.030960307
169	0x3d9fbe50	0.07799971
170	0x3ca09b3a	0.019605268
171	0xbd98ff7d	-0.074706055
172	0x3c49c9ab	0.012316148
173	0xbcffa23a	-0.031205285
174	0x3b4dde2f	0.003141295
175	0xbd1aecef	-0.037823614
176	0xbac7dd4a	-0.0015248444
177	0xbbcdea47	-0.0062840316
178	0x3c81c35d	0.015840227
179	0x3cb9fe19	0.022704171
180	0xbd498a53	-0.049204182
181	0xbd8dead5	-0.06929556
182	0xbcf90cd0	-0.030401617
183	0xbda33c5b	-0.07970496
184	0x3d7bcafe	0.061472885
185	0xbd9e49e2	-0.07728936
186	0x3dabba28	0.08385116
187	0x3daa2a03	0.08308794
188	0xbdaadd51	-0.08342994
189	0xbda4d32e	-0.08048092
190	0x3b981e6d	0.004642299
191	0xbc0e1383	-0.008671644
192	0xbd9e4be8	-0.07729322
193	0x3b287737	0.0025705823
194	0xbd3b2827	-0.04569259
195	0x3da95fc8	0.08270222
196	0x3ca8497c	0.020542853
197	0xbb95de56	-0.0045736236
198	0xbd668b72	-0.05628533
199	0xbc9da49a	-0.019243527
200	0x3d3ce60a	0.04611782
201	0xbd829727	-0.06376486
202	0xbb2044da	-0.0024455101
203	0x3d95f635	0.07322351
204	0xbd6bad63	-0.0575384
205	0xbb9aa5b2	-0.0047194595
206	0x3be4826d	0.006973556
207	0xbd44317e	-0.047898762
208	0x3cc9f204	0.024651535
209	0xbd6a0edb	-0.057143074
210	0xbd4aeaa5	-0.04954018
211	0x3c78822b	0.015167753
212	0x3d8a7afc	0.06761739
213	0x3c1ed9d2	0.009695487
214	0x3d4de39c	0.050265893
215	0x3d34cfb4	0.044143394
216	0x3d858f45	0.06521467
217	0xbd792eff	-0.060835835
218	0x3d9f79fb	0.07786938
219	0xbd51d9fc	-0.051233277
220	0xbca45202	-0.020058636
221	0x3d61561d	0.055013765
222	0xbca8aa6e	-0.02058908
223	0xbcf224a8	-0.029558495
224	0xbc90d87b	-0.017681351
225	0xbd8d9cb9	-0.06914658
226	0x3cca67d9	0.024707722
227	0x3ccb67c2	0.024829749
228	0xbcdc6ba5	-0.026906798
229	0xbd344be1	-0.044017676
230	0xbd8ae6c4	-0.06782296
231	0xbc3258d9	-0.010885441
232	0xbd889512	-0.06669058
233	0xbcb4a83f	-0.022052882
234	0x3d883c0f	0.0665208
235	0xbc538dae	-0.012912197
236	0xbb440902	-0.0029912596
237	0xbd1702b7	-0.036867823
238	0xbd985442	-0.07437946
239	0x3d7cc5bb	0.061712008
240	0xbd6e1066	-0.058121108
241	0x3d43e2cb	0.04782371
242	0xbcfa890a	-0.030582923
243	0xbcc00c54	-0.023443379
244	0x3cc81519	0.024424123
245	0xbd3df014	-0.046371534
246	0x3c8278fb	0.015926829
247	0xbd960a2a	-0.073261574
248	0xbd6ee4f3	-0.05832381
249	0x3d89039e	0.06690143
250	0xbc5cfe68	-0.01348839
251	0xbd9dbe85	-0.07702354
252	0xbd884f74	-0.066557795
253	0xbd281b6f	-0.041041788
254	0x3cee4e33	0.029090023
255	0x3d500fb3	0.050796222

conv2.bias f4 [64]
0	0xbaed8b86	-0.0018123246
1	0xbb1e80cb	-0.0024185653
2	0x3b3a1934	0.002839637
3	0x3aa29581	0.0012404175
4	0xbb29c818	-0.0025906619
5	0x3adb8f5d	0.00167511
6	0xbb317884	-0.002707989
7	0xbb38d8a5	-0.0028205302
8	0xba0cd213	-0.00053718797
9	0xbafaa59c	-0.0019122842
10	0xbaaf70d3	-0.0013385065
11	0xbad7da89	-0.0016468327
12	0x3b324b5c	0.0027205562
13	0x3ae45991	0.0017421712
14	0x3b31de91	0.0027140717
15	0x3b3f751a	0.0029214085
16	0xbaffee66	-0.0019526004
17	0x3b15a017	0.0022831017
18	0xbafddea6	-0.0019368723
19	0xbafce7b2	-0.0019295125
20	0xbb218130	-0.0024643652
21	0xbb2f5c71	-0.002675798
22	0x3b349975	0.0027557288
23	0xbb2d0618	-0.0026401337
24	0x3a54758f	0.0008104676
25	0xbb2f3de0	-0.0026739761
26	0xbaefb2a5	-0.0018287493
27	0xbad33364	-0.0016113338
28	0x3b31be24	0.002712139
29	0x3b3a240e	0.0028402838
30	0x39a0fe54	0.00030707067
31	0xbb346fbc	-0.002753242
32	0xbb1b4a46	-0.0023695393
33	0xbb26baf7	-0.002544103
34	0x3b3506ea	0.002762253
35	0x38df5938	0.00010650087
36	0xbb3a0cbf	-0.0028388945
37	0xbb2365ce	-0.0024932506
38	0x00000000	0.0
39	0x3b1807a0	0.0023197904
40	0x3a32ef9d	0.00068258663
41	0xbb34fc0a	-0.0027616047
42	0xbaec4c7d	-0.0018028166
43	0xbaffa06d	-0.0019502767
44	0x3b2fbfa9	0.002681712
45	0xbb0c4a17	-0.0021406466
46	0xbb201fd4	-0.0024433034
47	0x00000000	0.0
48	0xbb39d2bf	-0.0028354374
49	0xbb289a10	-0.0025726594
50	0xbb374c92	-0.0027969223
51	0xbb2feac8	-0.0026842821
52	0xbb27df7f	-0.0025615392
53	0xba33c6ad	-0.0006857913
54	0x391288f9	0.00013974671
55	0x3b1c0d8a	0.002381178
56	0xbb21f72d	-0.0024713979
57	0xba1c7a50	-0.0005969154
58	0x3b3c29cb	0.0028711434
59	0xbb2c8cbf	-0.0026329008
60	0xbb17a4b2	-0.0023138938
61	0xbb0116ab	-0.001969735
62	0x00000000	0.0
63	0xb9c65282	-0.00037826976

conv2.lin.weight f4 [64, 64]
0	0xbe4cbe21	-0.19994403
1	0xbda01722	-0.07816912
2	0xbdf0be49	-0.11755044
3	0xbacb44a3	-0.0015508126
4	0x3e32e0e5	0.17468603
5	0x3ddfb41a	0.109230235
6	0xbe236962	-0.15958169
7	0xbd7b63e4	-0.06137456
8	0xbd8d2c31	-0.068931945
9	0xbd847f9a	-0.064696506
10	0x3ca72d30	0.02040729
11	0xbd9c863a	-0.07642789
12	0x3da42af6	0.08016007
13	0x3df5d732	0.12003936
14	0xbe409a61	-0.18808891
15	0xbd8cc411	-0.06873334
16	0x3e254f10	0.16143441
17	0x3e3e7a60	0.1860137
18	0x3d352c13	0.044231486
19	0x3dc18337	0.09448855
20	0x3d1693ec	0.036762163
21	0xbd45c995	-0.048287947
22	0x3de93426	0.113869
23	0xbe0f345c	-0.13984817
24	0xbc429cbb	-0.011878188
25	0xbd717ca9	-0.058956776
26	0x3d1961bc	0.037446722
27	0xbdd2e35c	-0.102972716
28	0xbddf0421	-0.108894594
29	0x3e5273fd	0.20552059
30	0x3e22e70b	0.15908448
31	0xbe452b18	-0.1925472
32	0xbe33cb91	-0.17558123
33	0x3cb613cc	0.022226237
34	0x3e173233	0.14765243
35	0x3d1d4448	0.038395196
36	0x3b93b5e0	0.004507765
37	0x3e403bcf	0.18772815
38	0xbe0342b0	-0.12818408
39	0x3d300a90	0.042978823
40	0x3dd9a9b9	0.10628075
41	0x3e3dd639	0.1853875
42	0xbdeac0ed	-0.11462579
43	0xbdccfca0	-0.10009122
44	0x3cab165d	0.020884687
45	0xbd54eab3	-0.05198164
46	0x3e210121	0.15723087
47	0xbd91565c	-0.0709655
48	0xbda0b12a	-0.07846291
49	0x3dad251e	0.08454345
50	0x3e14bded	0.14525576
51	0xbe35cbb7	-0.17753492
52	0xbde85e26	-0.113460824
53	0x3e0c64ad	0.1371028
54	0xbd8edf7a	-0.069762185
55	0xbda1b9a3	-0.078967355
56	0x3e0efc99	0.13963546
57	0xbdabbb8f	-0.08385383
58	0xbe031c36	-0.1280373
59	0x3e30c6b6	0.17263302
60	0xbe5c554e	-0.21516916
61	0x3dc731b2	0.097262755
62	0x3cece081	0.028915646
63	0x3dd849b5	0.105609335
64	0x3d342e07	0.043989208
65	0xbe0f722b	-0.14008395
66	0xbccc6720	-0.024951518
67	0x3d40f769	0.04711095
68	0x3e3a0934	0.18167573
69	0xbcbeb434	-0.023279287
70	0xbc910610	-0.017703086
71	0xbe1370f7	-0.14398561
72	0x3e4ba30e	0.19886419
73	0xbdb68dd8	-0.08913773
74	0x3d4f12e0	0.05055511
75	0xbdca544f	-0.09879362
76	0x3e5a48aa	0.21316782
77	0x3df0332a	0.11728509
78	0xbde43309	-0.11142547
79	0x3e457f21	0.19286777
80	0x3e35ec64	0.17765957
81	0x3d9d9285	0.07693962
82	0xbd8f4dad	-0.06997237
83	0x3da02f81	0.07821561
84	0xbdde8706	-0.108655974
85	0xbe1e8aa6	-0.15482578
86	0x3c8a33d8	0.016870424
87	0x3dfea476	0.12433712
88	0x3e266e2b	0.16252963
89	0x3b8ce0f4	0.0042992774
90	0xbe2692c3	-0.16266923
91	0xbd0bedd8	-0.034162372
92	0xba4c57bc	-0.0007795056
93	0x3de91c72	0.11382379
94	0xbd97a254	-0.074040085
95	0xbdf4f2fa	-0.119604066
96	0xbd8ef9a3	-0.06981208
97	0xbe00e866	-0.12588653
98	0xbc5f57a0	-0.013631731
99	0x3e3fa35b	0.18714659
100	0x3db52f3a	0.088468984
101	0x3da50ba3	0.0805886
102	0xbe506087	-0.20349322
103	0xbdc137e3	-0.09434488
104	0xbd795ff6	-0.06088253
105	0xbe2ece10	-0.17070794
106	0x3dce47b8	0.10072273
107	0x3dae7270	0.08517921
108	0xb93b6367	-0.0001787074
109	0xbe013e40	-0.12621403
110	0x3d08c2c0	0.033388853
111	0x3da46dda	0.08028765
112	0x3e3c9bf1	0.18418862
113	0xbd85a769	-0.065260716
114	0xbdba520c	-0.090976804
115	0xbd7c6994	-0.061624125
116	0xbdbca55a	-0.09211226
117	0x3e276383	0.16346554
118	0x3c53a160	0.012916893
119	0xbe36f271	-0.17865922
120	0xbd972f9c	-0.07382128
121	0xbce86872	-0.028370116
122	0x3e57eccb	0.21086423
123	0xbe24a068	-0.16076815
124	0x3dec7428	0.115455925
125	0x3ca1f6ae	0.019770946
126	0x3e291cbe	0.1651487
127	0x3c226979	0.009912842
128	0xbe354236	-0.17701039
129	0xbe456e76	-0.19280419
130	0x3e19cbd8	0.15019166
131	0x3e14ff49	0.14550509
132	0xbca5a7da	-0.02022164
133	0xbc72acbe	-0.014811693
134	0x3e484359	0.19556941
135	0xbdd83405	-0.10556797
136	0x3d650503	0.055912983
137	0x3b943b3e	0.004523664
138	0x3e43f870	0.1913774
139	0xbe334d8e	-0.17510054
140	0x3e52f86f	0.20602582
141	0x3d7d6c94	0.061871126
142	0x3e27ccbe	0.16386697
143	0x3e2fbfce	0.17163011
144	0x3db7e524	0.08979252
145	0x3e301b08	0.17197812
146	0x3d7dd1e7	0.061967757
147	0xbc97a791	-0.01851252
148	0x3df190dc	0.11795208
149	0xbd891b35	-0.066946425
150	0x3da06792	0.078322545
151	0xbe0a3c4a	-0.13499561
152	0x3dd900e6	0.105958745
153	0x3c963246	0.01833452
154	0xbe5cab93	-0.21549825
155	0x3d8c3f76	0.06848042
156	0xbd81b5bd	-0.06333492
157	0x3dd19971	0.10234345
158	0x3e4a7f8d	0.1977522
159	0x3db204da	0.086923316
160	0xbe2bf0df	-0.16791104
161	0x3deb8f2d	0.11501918
162	0xbe497431	-0.1967323
163	0xbc05c552	-0.008164721
164	0xbdd57d55	-0.10424296
165	0xbe4e5e68	-0.201532
166	0xbe0cb1be	-0.13739678
167	0x3e4d08a8	0.20022833
168	0xbe101e3c	-0.14074033
169	0xbd58a150	-0.052888215
170	0x3d1153de	0.035480373
171	0x3de4340b	0.11142739
172	0xbcae84e6	-0.021303605
173	0x3bb151e3	0.005411373
174	0x3e3d44ad	0.18483229
175	0x3c880600	0.016604424
176	0xbd618e83	-0.05506755
177	0x3e1f1928	0.1553694
178	0x3dbd7862	0.09251477
179	0xbcaabc11	-0.02084163
180	0xbd6458a8	-0.05574861
181	0xbe15965c	-0.14608139
182	0xbe3e0645	-0.18557079
183	0x3dbbfb9b	0.09178849
184	0x3d9acb8e	0.07558356
185	0xbe00b3cb	-0.12568586
186	0x3e162ba0	0.14665079
187	0xbd5ed514	-0.054402426
188	0x3e1acd6b	0.15117423
189	0x3e5c8be0	0.21537733
190	0xbd5afcf4	-0.05346389
191	0x3e2c4e84	0.16826826
192	0xbdebd4be	-0.11515187
193	0x3e249a35	0.1607445
194	0xbddd8e34	-0.10818139
195	0xbe303a5e	-0.17209765
196	0xbe24f238	-0.16108024
197	0x3e312a1a	0.17301217
198	0xbc5b2d60	-0.013377517
199	0x3e506d93	0.20354299
200	0x3e2b5b69	0.16734089
201	0x3df9c965	0.12196616
202	0x3dbe2a6e	0.092854366
203	0x3c70f040	0.014705718
204	0xbe3a7153	-0.18207292
205	0x3ded9976	0.11601536
206	0x3d1bfecd	0.038084794
207	0x3e23a899	0.15982284
208	0xbe0c0b35	-0.1367615
209	0xbe06633b	-0.13123791
210	0x3d6ba808	0.057533294
211	0x3e43aedc	0.19109672
212	0x3e4620f6	0.19348511
213	0xbd70f504	-0.058827415
214	0x3d405e04	0.04696466
215	0x3e5504df	0.2080264
216	0x3d9bb1a2	0.0760224
217	0xbe129c22	-0.14317372
218	0x3e28f913	0.16501264
219	0x3d8ab49e	0.06772731
220	0x3ded0bde	0.11574529
221	0xbd33593c	-0.043786272
222	0x3e4e515f	0.20148228
223	0x3d913fe2	0.07092263
224	0xbdf925ae	-0.1216539
225	0xbe23bd69	-0.15990223
226	0x3e3d9b9d	0.18516393
227	0x3e0c64b5	0.13710292
228	0xbe525a39	-0.2054223
229	0xbdd29601	-0.10282517
230	0xbe187a32	-0.14890364
231	0xbde34421	-0.11096979
232	0x3d51525c	0.051103935
233	0xbe34f532	-0.1767166
234	0xbe479972	-0.19492128
235	0x3e1875ad	0.1488864
236	0xbdccbfd9	-0.099975295
237	0xbe157ee1	-0.14599182
238	0x3d1d07a4	0.038337365
239	0x3be08ca0	0.0068527013
240	0xbcfd5e28	-0.030928686
241	0x3c524950	0.012834862
242	0xbe5bb689	-0.2145635
243	0x3d534e55	0.051588375
244	0xbdc12465	-0.0943077
245	0x3e0de0ab	0.13855235
246	0x3df5ab02	0.11995508
247	0x3dc1c2a5	0.094609536
248	0xbe45343f	-0.19258212
249	0xbba440a0	-0.0050125867
250	0xbe4964ff	-0.19667433
251	0xbda16206	-0.078800246
252	0xbcc116b0	-0.023570389
253	0xbc784180	-0.015152335
254	0xbe057261	-0.13031913
255	0x3e22a485	0.15883072

fc.weight f4 [4, 64]
0	0x3d84f54b	0.064920984
1	0x3dcdcb5b	0.100485526
2	0xbe028f37	-0.12749945
3	0xbdb0f871	-0.086411364
4	0x3d6104e5	0.05493631
5	0xbda08f44	-0.07839826
6	0x3dc78089	0.09741313
7	0x3d7174ca	0.05894927
8	0x3d8d88dd	0.0691087
9	0x3df4743d	0.11936233
10	0x3ccd5d61	0.02506894
11	0x3d89853f	0.06714868
12	0xbdf98850	-0.12184203
13	0xbd891814	-0.06694046
14	0x3c7af6df	0.015317648
15	0xbdf56d68	-0.11983758
16	0xbd3c2da8	-0.04594198
17	0x3c00113a	0.007816607
18	0x3d9fd81f	0.07804894
19	0x3decfded	0.1157187
20	0x3db38e31	0.08767355
21	0x3d02801c	0.031860456
22	0xbd36229c	-0.0444666
23	0x3d05557d	0.03255223
24	0xbdfbc7ef	-0.12293994
25	0x3deaa4d8	0.11457223
26	0x3d6d4787	0.057929542
27	0x3d994d66	0.07485466
28	0xbd96c881	-0.07362462
29	0x3c297c36	0.010344556
30	0x3d0a7490	0.03380257
31	0x3dafb90d	0.085802175
32	0x3de5ef68	0.11227304
33	0x3dd09b38	0.101858556
34	0xbdca7a7b	-0.098866425
35	0xbdfef53e	-0.1244912
36	0x3d2e7b8b	0.04259829
37	0x3d903c07	0.07042699
38	0x3def46d4	0.11683431
39	0x3d7b0fc0	0.061294317
40	0xbd81a2ee	-0.063299045
41	0xbd95f7f9	-0.07322688
42	0xbd974656	-0.073864624
43	0x3ccdf1dc	0.025139742
44	0xbd6ea5eb	-0.0582637
45	0xbd58114d	-0.052750874
46	0x3dd6ec66	0.10494308
47	0x3daeb4f6	0.08530609
48	0x3d60befa	0.05486963
49	0x3cc760ff	0.024338244
50	0x3daf9f6b	0.085753284
51	0x3db8820e	0.09009181
52	0x3db61e5a	0.08892508
53	0x3d621e01	0.055204395
54	0x3d8aed5c	0.06783554
55	0xbd53f5be	-0.05174803
56	0x3db7a028	0.08966094
57	0x3d225a8e	0.03963714
58	0xbdeae0de	-0.11468671
59	0x3dcd7581	0.10032178
60	0xbd870499	-0.06592674
61	0x3da5735f	0.08078646
62	0xbc9f5d60	-0.019453704
63	0x3c86f4d7	0.01647417
64	0xbdab29f0	-0.08357608
65	0x3dff0e1d	0.12453864
66	0x3caa0372	0.020753596
67	0xbdd3cf23	-0.103422426
68	0xbd87a3e9	-0.0662306
69	0x3d12f6c6	0.035879873
70	0x3c9fdf2d	0.019515598
71	0xbd51726d	-0.051134516
72	0x3cffba65	0.03121681
73	0x3bd0d2f3	0.0063728034
74	0xbd9f4a63	-0.0777786
75	0xbcd1f6cf	-0.025630383
76	0x3d80856a	0.06275447
77	0x3d06b72c	0.03288953
78	0x3df82ffd	0.12118528
79	0xbd859c06	-0.065239
80	0xbdd42785	-0.103591
81	0x3cb979ab	0.022641024
82	0xbd9554c7	-0.072915606
83	0xbd90c8ff	-0.07069587
84	0xbce0d27d	-0.027444119
85	0xbd5c6405	-0.053806324
86	0x3d06c4a7	0.032902386
87	0xbd07c953	-0.033150982
88	0xbdceefa9	-0.10104305
89	0x3d491486	0.04909184
90	0xbbbdaa6a	-0.005788137
91	0x3daea8c2	0.08528282
92	0x3d8ef576	0.06980412
93	0x3d72f39c	0.059314355
94	0x3d8a89b9	0.0676455
95	0x3de21584	0.1103926
96	0x3b9e3b7c	0.0048288684
97	0x3d95a9fb	0.07307812
98	0x3d99d843	0.07511952
99	0xbdc1af6e	-0.09457289
100	0x3c42f4f1	0.011899219
101	0xbd9f885a	-0.07789679
102	0x3a694400	0.00088983774
103	0x3e00d18b	0.12579934
104	0xbd08ca40	-0.033396006
105	0xbdcd880d	-0.10035715
106	0xbde9f632	-0.11423911
107	0x3d777abc	0.060419783
108	0x3dc040b8	0.09387344
109	0xbd6ef5f5	-0.05834003
110	0xbd691ece	-0.056914143
111	0x3d6bb748	0.057547837
112	0xbdcf9c17	-0.10137194
113	0xbd971d60	-0.0737865
114	0x3dae6d2f	0.08516919
115	0x3c8ae720	0.016955912
116	0xbdefce69	-0.117092915
117	0xbda6ba63	-0.08141019
118	0x3dbb206a	0.09137042
119	0xbd24ac52	-0.0402034
120	0xbcb1b806	-0.021694195
121	0x3d8bde17	0.0682947
122	0xbdcbaed2	-0.09945454
123	0x3df44518	0.11927241
124	0xbdaa6b4a	-0.08321245
125	0xbdcc17cc	-0.099654764
126	0xbdc34d68	-0.095362484
127	0xbd8a1ccd	-0.067437746
128	0xbd68e052	-0.056854554
129	0x3d76a4a2	0.0602156
130	0xbcd54581	-0.026034119
131	0xbc5451fc	-0.012959
132	0xbd811b07	-0.06303983
133	0x3db48f5d	0.08816407
134	0x3d4c038f	0.04980808
135	0xbd306a98	-0.043070406
136	0x3dcf20ae	0.10113655
137	0xbd73b86f	-0.05950206
138	0xbd809dc0	-0.062800884
139	0xbde4c3a2	-0.111701265
140	0xbdeab768	-0.11460763
141	0x3d4cdfef	0.050018247
142	0x3dd82d45	0.105555095
143	0x3dd28a67	0.102803044
144	0xbc3c3778	-0.011487834
145	0x3db9d24a	0.090733126
146	0x3d1fe245	0.039034147
147	0xbd855550	-0.06510413
148	0x3dc3f5fa	0.09568401
149	0xbdf9fff6	-0.12207024
150	0x3d34c0c0	0.044129133
151	0xbdba8699	-0.09107704
152	0x3c68035f	0.01416096
153	0x3d4a0f26	0.049330853
154	0xbd9e4eab	-0.077298485
155	0xba49fd18	-0.00077052554
156	0xbdeb602b	-0.11492952
157	0x3d9f1322	0.07767321
158	0x3beed523	0.0072885915
159	0xbdb7901b	-0.08963033
160	0x3a434490	0.0007448876
161	0xbdfaf35a	-0.12253447
162	0xbca44a4e	-0.020054962
163	0xbd9fada2	-0.0779679
164	0x3bb77ae0	0.0055993646
165	0xbce10ff5	-0.02747343
166	0xbbe35520	-0.006937638
167	0x3db0e1b2	0.08636798
168	0x3d31c5f5	0.043401677
169	0xbd761266	-0.06007614
170	0xbdfa3b5f	-0.122183554
171	0xbdf15dba	-0.11785455
172	0xbcb577e2	-0.022151891
173	0xbd8d9e01	-0.069149025
174	0xbc1f22f0	-0.00971292
175	0x3dea3dde	0.114375815
176	0xbd901ce2	-0.07036759
177	0x3dc4d90e	0.096117124
178	0xbd8c306a	-0.06845172
179	0xbc3f8a53	-0.011690694
180	0xbdcb65ef	-0.09931552
181	0x3dde5761	0.1085651
182	0x3d80592e	0.0626701
183	0xbd449c2d	-0.048000503
184	0xbdea7166	-0.1144741
185	0x3b550223	0.0032502494
186	0x3d301117	0.04298505
187	0x3d255c4f	0.040371235
188	0xbdcee60e	-0.10102473
189	0x3d7d0cca	0.061779775
190	0x3d90958c	0.07059774
191	0x3cba1b95	0.02271823
192	0xbcf52577	-0.029925091
193	0x3de08acc	0.109639734
194	0xbd78ae75	-0.06071325
195	0x3d79c5eb	0.060979765
196	0xbd0a5eaa	-0.033781685
197	0x3cbdf9fd	0.023190493
198	0x3d75df66	0.060027502
199	0xbd1c2208	-0.038118392
200	0x3d9364db	0.07196971
201	0x3dac491c	0.08412382
202	0x3ca67ac3	0.02032221
203	0x3df4fa10	0.11961758
204	0xbda637be	-0.08116101
205	0xbd146f5b	-0.03623901
206	0xbdf6efd6	-0.12057464
207	0x3de34e60	0.11098933
208	0x3d1145f9	0.03546712
209	0xbdc68da7	-0.09694987
210	0xbde2aebb	-0.110684834
211	0x3dc70e65	0.097195424
212	0xbca814f6	-0.020517807
213	0x3dfab18e	0.12240897
214	0x3de3cb15	0.11122719
215	0x3ddc75a9	0.107646294
216	0x3d969c52	0.073540345
217	0xbca877c7	-0.020564927
218	0x3d047720	0.03234017
219	0xbbb6f979	-0.0055839387
220	0xbb825553	-0.0039774566
221	0xbcfa7f5f	-0.030578313
222	0xbcf17563	-0.02947492
223	0xbccf13a2	-0.025277916
224	0x3d619486	0.055073284
225	0xbc558fb7	-0.013034753
226	0xbdd849eb	-0.10560974
227	0xbcb4bcba	-0.022062648
228	0xbdb29744	-0.08720258
229	0x3dd60490	0.10450089
230	0x3c548f10	0.012973562
231	0x3c24a9db	0.010050262
232	0x3ce928b6	0.028461795
233	0xbdc23f25	-0.094847
234	0x3dd0e857	0.10200565
235	0x3deee624	0.116649896
236	0xbcd37024	-0.025810309
237	0xbd2744d1	-0.040837113
238	0x3b6ddb8f	0.0036294197
239	0xbde1f672	-0.11033334
240	0xbdea566d	-0.11442266
241	0xbba8c9cf	-0.0051510106
242	0x3debb0be	0.1150832
243	0x3d826e80	0.063687325
244	0x3c5ec1a2	0.01359597
245	0x3d6c1b2a	0.057643093
246	0x3dc34443	0.09534504
247	0x3dfdb160	0.12387347
248	0xbdb7cb75	-0.08974353
249	0xbd8d0a48	-0.068867266
250	0xbde3933e	-0.111120686
251	0xbd779a52	-0.060449906
252	0x3dad5d02	0.084650055
253	0xbdad20ba	-0.08453508
254	0x3d9fc4de	0.07801221
255	0x3d9e07d5	0.077163376

fc.bias f4 [4]
0	0x3d872392	0.065985814
1	0x3d80de54	0.06292406
2	0xbda51eb9	-0.080625005
3	0xbd2ee55f	-0.042699214
